log_signatures_and_pytorch/pyT001/model.ckpt (torch_old, 104889 bytes, 4 tensors)

linear1.weight f8 [500, 15]
00000000: bf52 29f1 4df9 f2bf 0aad 72c4 4094 c3bf
00000010: 08f0 08a6 81f5 b53f 3b16 6b26 b79e dbbf
00000020: 8397 63a8 3e4f d13f 0e07 3dd2 2253 c23f
00000030: 8895 5d80 90a6 b7bf d8bb 3976 4e08 bcbf
00000040: 681c 8c43 0f5a db3f f38f 5d21 ac63 acbf
00000050: 4a42 5bdc 244f d13f 46cb 4bf2 e517 ddbf
00000060: 4f56 9494 d26a cf3f 4a19 3971 99bd bd3f
00000070: 5b25 dc09 7ba1 d33f 0360 a1b3 1220 07c0
00000080: 460b 997d 5da9 c23f b13e 5cfd b41a d23f
00000090: 0dbe f4db ac14 d6bf 0020 630b 3f9f cabf
000000a0: 036d ac7b 2aca e63f 341e 50a8 929f 02c0
000000b0: 8d64 4813 b64e ee3f cbb2 c21b 2c8a ccbf
000000c0: 5aeb a506 6e2e c03f 3540 d09c 81dd e03f
000000d0: 8d29 efde f880 f13f 379e cfe6 08ec da3f
000000e0: bf83 90ea b535 b0bf 7d32 1cbc eba8 d03f
000000f0: dbdd d0fe 5417 f7bf bc92 743a 0a2b d3bf
00000100: 3ac3 5b0e b543 dc3f d331 c605 79ac c8bf
00000110: 4b12 25b4 897b 8bbf 51a9 9b4b fd48 8ebf
00000120: b82e e387 cb4a febf 2a02 373b 4bf1 bebf
00000130: 462c 9cdc 3a3e d7bf 9d2c f359 6206 bd3f
00000140: 2ab7 8001 3cb6 d03f 0c1b 6353 193c d1bf
00000150: bb58 f298 a076 913f 2264 9e29 be7b b6bf
00000160: 21e0 f1d7 d432 c93f da59 7146 e19b fcbf
00000170: ef28 23d1 4d90 f13f 48e7 64f7 e65f 97bf
00000180: 871d 3431 b1cd f9bf 8dbf b571 344a d3bf
00000190: a905 353d bf4f d3bf 126d 5c04 e8eb f2bf
000001a0: aba4 3a9e ec7b e43f 2b16 1a90 dd94 af3f
000001b0: dcb8 65c8 6931 b6bf a16e 2887 25dc d6bf
000001c0: f9e3 6655 b042 a3bf 18b7 5ff9 8376 c63f
000001d0: d39c 262c 4220 e43f b222 d01f da0d d93f
000001e0: f711 53fc 365a fdbf 6a95 c70f f8b2 e6bf
000001f0: 8640 548e 2c43 e03f b1c8 47bd dba6 00c0
00000200: 21f3 df81 a2ab d03f ba5e 4912 709d bfbf
00000210: 7413 53fe 0561 f4bf 5247 5b05 a2a0 debf
00000220: 1e11 f66c 82cd a93f 8aa8 848e d19c cc3f
00000230: 91ce a305 251a e0bf 6b72 77ec f88e b63f
00000240: 1dbe 6396 726e c03f ebc0 93a7 c639 d23f
00000250: a4c6 7579 b78d d73f df32 9535 feff f0bf
00000260: e7d7 f7ba a149 bbbf 7883 75fa c628 db3f
00000270: 1f3f 9f29 c3ce b3bf 2801 ec52 2c29 cabf
00000280: c4ee 440d 3f24 d3bf 72b6 c883 458d c9bf
00000290: 115f eaa2 7058 d63f 46b5 92c3 77d8 93bf
000002a0: 328d 1897 1d27 c5bf c19d 8f04 7dc9 b4bf
000002b0: ee9e 0910 e81c d5bf d133 7538 1d4f c43f
000002c0: 0e93 914b 63b0 c83f 4c68 245c de1f da3f
000002d0: 1696 a39c f762 e2bf 371f 8f67 1603 d0bf
000002e0: 5f8f a151 05ec 67bf 3faa 7343 5fd1 d2bf
000002f0: 7e27 206d f8cd 96bf a0c5 8908 313c c1bf
00000300: 71e3 d7a9 ca2b 9bbf 2f48 1d8d d197 a8bf
00000310: deaf 0c26 f30b 9c3f 22d2 ebed dfc6 b63f
00000320: a70f a16d f664 b9bf cc7e 93b3 008d b03f
00000330: 8d8b 8048 50d1 a53f 0166 afe4 df71 b9bf
00000340: 6fc4 6302 838e 923f 49dd 1b7f 8a04 fcbf
00000350: 4364 fb33 2ad5 d2bf 8b0d 5a5e 2472 c53f
00000360: 0a87 52c2 1544 f0bf 8645 bb69 0a89 d6bf
00000370: 49d4 2ba1 c962 c1bf 605c 9de4 af73 efbf
00000380: f779 6e70 7a97 c5bf f746 ee94 3e87 bcbf
00000390: faea 9a3f 2983 d6bf 8d8a ddc0 b362 b7bf
000003a0: 2157 004f bfc4 b0bf c17f 74aa 6359 c53f
000003b0: 19f9 5560 1844 c63f 708d 2574 c276 d8bf
000003c0: 6d02 0104 5378 d6bf 5995 f3b8 c056 863f
000003d0: 51da 4f39 6f72 b23f 3fc4 7da0 bfd3 e5bf
000003e0: 2bbc 4009 0fdf d2bf b885 0b61 1df0 c9bf
000003f0: fb67 8701 4d72 cfbf df33 6467 c8fb c7bf
00000400: c6ec 8b09 676d 73bf b350 a81b 0f49 7dbf
00000410: 32dc eb6a f857 a8bf 40c6 6cc9 0bed b63f
00000420: cd22 a3d5 165a 9fbf e802 ae25 d4ec 5e3f
00000430: 1989 b590 4628 8bbf e3b4 274f 6e8b e8bf
00000440: c183 d1fd 0f1a d43f 5c1b 838c f9a2 733f
00000450: 3096 7d1c 9309 d9bf ef3d 7f12 eee3 cbbf
00000460: 61d9 440e 8fe6 b5bf 1ee4 c2d0 ea35 c1bf
00000470: e315 92b0 ae9b da3f 24d5 952f 1ae3 d73f
00000480: 3dfe 570d e015 d43f 3e3f 6aed 669b b5bf
00000490: b018 658c 86da c73f 70fe a3ae 8aba 95bf
000004a0: 1a13 e216 803f b0bf ba18 9374 a6d3 ce3f
000004b0: b89b 77b9 d4a7 f6bf 83dd f532 ff9e d9bf
000004c0: 2110 f26d 21c6 af3f 9c90 3696 4caf e3bf
000004d0: e18b 65f4 622d c2bf 2df5 89d7 c60f cfbf
000004e0: 43e7 5425 4209 eebf 89bc dcd4 23bb f2bf
000004f0: 2322 ab28 04ca b9bf 8df0 c7e3 1e6b c2bf
00000500: 5eed bf02 33b7 d8bf 0a20 5421 e18d c23f
00000510: 3635 c72f 2410 c83f 6d94 c1ac 3412 c53f
00000520: c632 0391 c831 c7bf 4b2d 31ad 5f78 f7bf
00000530: 6881 2b00 7a66 ddbf b397 366c 9080 dd3f
00000540: 01f6 229b 4cdb f1bf ef89 c2b7 3ed8 d5bf
00000550: ebf7 956a 1eb7 c53f 05e0 0456 66e1 d7bf
00000560: c70c 7757 1e40 debf 11fd 5865 a135 b1bf
00000570: 5efd a57e a434 c13f 4563 8789 ddda c9bf
00000580: 3e9e c34a 758e ce3f b873 53a0 26de bcbf
00000590: e56f 750e 2234 a6bf db87 5593 4da7 e03f
000005a0: a025 a190 88ee 00c0 2185 24ec 4d9d b3bf
000005b0: 5298 e716 3553 d3bf 6b2d 524d 4566 ecbf
000005c0: 3864 c851 e857 cbbf 51dc 91a0 bd5c b3bf
000005d0: ef69 1283 a682 d3bf 7b75 82f1 7f05 ba3f
000005e0: d8fb 4ab3 1b04 c1bf ea35 9e0b 8719 ad3f
000005f0: d7ca b447 fafd e43f cfdc c35f 1c54 bb3f
00000600: 902b 62fb f00e b33f be29 59a1 da75 e43f
00000610: 1d41 cf1e 980c 9dbf 96f2 f964 fc6e 21c0
00000620: c93e 91e8 09da e73f 884c a538 d65c e73f
00000630: 3ed4 fe22 c6fa 12c0 9fb0 c636 af62 f13f
00000640: feb9 026d ac79 eabf 5be3 7e53 4500 d33f
00000650: 73fb 6aba 0af1 d0bf 49a9 1493 b1af a7bf
00000660: bd25 4569 c734 d23f e5f0 523c b9a0 c0bf
00000670: 4f5e 7d60 0640 ebbf d2e2 8bd6 2c17 1040
00000680: 3a6e 70a5 1204 1440 6233 81de 9987 0840
00000690: 0104 8ded 929c fcbf 0292 b930 8b30 b6bf
000006a0: 0523 7b4b a702 f33f 907a 8b1a 5c86 ebbf
000006b0: 7789 88f1 b993 68bf fa00 f103 cd4c b43f
000006c0: f229 04d9 3710 f9bf 313f 30f4 c190 e0bf
000006d0: 44e9 0ca4 b420 683f 7b05 aeab 1ec7 9c3f
000006e0: a897 3224 9e06 c9bf d8cd 8fc6 ab63 c23f
000006f0: 870c 1acc 8f2c d03f 7e09 8223 a6ba 8b3f
00000700: 5b2a fbdd c660 ef3f 6b41 035f 7530 dbbf
00000710: d45b e82f 52a0 c8bf c518 58e5 cfe8 b33f
00000720: b26b 6492 39d2 ecbf 528f 38b3 d909 c03f
00000730: 9c10 8feb a40f c73f ed72 7243 ac79 d4bf
00000740: 95a5 266e 8d88 c83f 2e35 b664 ad7d bfbf
00000750: 3b11 8dbf 6115 9fbf 16ed f97b b92b cdbf
00000760: 54d6 04fd d450 bc3f 449d 4899 a273 aabf
00000770: 093f 07eb 5d1a c23f ca9d efdd cfd5 c53f
00000780: e919 ae29 d09b d8bf 9894 f329 e365 b1bf
00000790: ecfb c868 5e3f c4bf bfa8 90fd eaaa c7bf
000007a0: e9d9 2c9d 5f7c a73f 8c6c c873 28d0 cd3f
000007b0: ea37 d242 4c22 d2bf 0de5 a5ee 6fcc af3f
000007c0: 0249 7835 7111 c5bf bb23 e422 b57f afbf
000007d0: 0dc3 59d7 bda9 c2bf faf4 4e52 4183 b0bf
000007e0: 0d85 6cff 4b32 373f e1bc 4c06 4dc5 c93f
000007f0: 2735 f26e e28d b4bf 885f 6142 2bdd f0bf
-1.1858653469436573 -0.15296182243523787 0.08577738097750409 -0.43156222106731307 0.27046171612015985 0.14316211000009854 -0.09238532194065929 -0.10950174700131698
0.42737180324951973 -0.05544793994229726 0.27045556563556217 -0.4545836321041644 0.24544746641974988 0.11617430700525691 0.30673099482426885 -2.8906606706259494
0.14579361565309962 0.2828800653669346 -0.3450119159706169 -0.20798481040969818 0.7121784606455609 -2.327916445679671 0.9471083046547776 -0.22296668391699934
0.12641692471137383 0.5270393431437755 1.0939873417251846 0.42065641918313496 -0.06331955887482275 0.2603101098073138 -1.4431962922807233 -0.2995019503453411
0.44163252260391384 -0.192763450450356 -0.013419223604281735 -0.014787653798937457 -1.8932605083563612 -0.12086935229945853 -0.36317321342420816 0.11337866493265598
0.2611227049518329 -0.2692931474997955 0.017054089865802462 -0.08782566562730712 0.19686375183278051 -1.7880566360159862 1.0977304620196795 -0.022826775407543992
-1.6127178117766066 -0.3014041052292605 -0.30174237229592876 -1.1825943155625436 0.6401274767314552 0.06168262847954183 -0.08669148581040836 -0.3571866817380656
-0.03761817018989428 0.17549180675944664 0.6289378034897716 0.3914704619096866 -1.8345250946450713 -0.7093468006320738 0.5081999568810864 -2.0814738070995067
0.2604757564839009 -0.12349605986070858 -1.2736873564292326 -0.4785542537984969 0.05039603786556966 0.22353572329422305 -0.5031914816049313 0.08811908505544756
0.12837059348338267 0.2847763668533065 0.3680247007497235 -1.06249829226288 -0.10659228148128329 0.42436384638681757 -0.0773736931434965 -0.2043815045253805
-0.2990872983534525 -0.19962376532332687 0.3491479483577545 -0.019380446731408506 -0.16525621297578535 -0.0811994682441002 -0.3298893124215131 0.158664372031494
0.19288293065906043 0.4081951045824368 -0.5745809611659662 -0.25018844712439 -0.002920160664006063 -0.29402906024066405 -0.022270089779375273 -0.13464939991858405
-0.026534239403165075 -0.04803328368747405 0.02738933486686778 0.08897208746550025 -0.09919681717388916 0.06465153106864391 0.04261256108318099 -0.09939383824475813
0.018121764202934928 -1.7511086430730123 -0.29426055027358106 0.1675458393766401 -1.0166223135678956 -0.3521142990622014 -0.13582725877464188 -0.9828719582682304
-0.16868525018521982 -0.11143866668706069 -0.3517554398674033 -0.09134982546451394 -0.06550212553733249 0.1667904455471199 0.17395310119531684 -0.3822485098118795
-0.3510940112210282 0.010907655376693514 0.07205863141266745 -0.682098210773013 -0.29486442473984437 -0.20264022100950085 -0.2456756837335091 -0.18737130211266526
-0.004743006219310069 -0.0071497526319214575 -0.047546160747451785 0.08955453555679416 -0.030617100514777108 0.0018875190496318531 -0.013260413447544072 -0.7670203729627726
0.3140907267280078 0.004794096756262824 -0.39120939047129166 -0.21789337065864298 -0.08554929827082482 -0.13445792382643246 0.41575209849574274 0.3732362236690554
0.3138351564702793 -0.08440249725594826 0.18635637145252337 -0.021219412717071895 -0.06346893843335658 0.2408340520107169 -1.4159743542493128 -0.4003293988857523
0.06205849139317388 -0.6151488241053076 -0.1420100873320669 -0.24266896747932645 -0.9386301736005652 -1.1706884684497558 -0.10073877327807472 -0.14389406320686185
-0.38618159550215647 0.14495481612561917 0.1879925950328613 0.16461809573516764 -0.18120677071273955 -1.4668881192508987 -0.45937967316242245 0.4609719330568353
-1.116039854051792 -0.3413235468416635 0.16965084270844896 -0.3731323089627952 -0.4726634840155381 -0.06722458576495095 0.13441902336124206 -0.201991741326106
0.23872247839539001 -0.11276475347717863 -0.04336649347780489 0.5204227330798362 -2.1164714144876626 -0.07661902442170689 -0.30195357548507673 -0.8874842176605119
-0.21362022393512503 -0.07563386125717499 -0.30484926986687716 0.10164641996603578 -0.13293787245308297 0.05683538452931798 0.6560031319152938 0.1067521795083508
0.0744467366913979 0.6393864775976039 -0.028368355637042975 -8.716769366751844 0.7453660528498968 0.730082617412692 -4.7448964565310785 1.0865928783123662
-0.8273527268518703 0.29689152864334795 -0.26471203045723896 -0.04626231117647934 0.2844713714626684 -0.12990489430911292 -0.8515655407490587 4.022631981170621
5.003977379786699 3.0662114508799485 -1.7882260588960437 -0.08667821826526992 1.1881478260494884 -0.8601513403371701 -0.0030001289089948663 0.07929688783861258
-1.566459510535989 -0.5176706094079916 0.0029452827588133685 0.028103331783773094 -0.19551445739233242 0.14366671748540116 0.2527198308163822 0.013539598425499785
0.9805635772293714 -0.42483267096124305 -0.1923926099704817 0.07777118062230944 -0.900662218019866 0.1253006100752097 0.18016492368599735 -0.31992632471683075
0.1916672504278664 -0.12301143368513998 -0.030355002704952155 -0.2278968673088932 0.11060839822024465 -0.051663476191885965 0.14142965293876156 0.17058752381056613
-0.3845100791008052 -0.06796092771726803 -0.15818386188945455 -0.18490350133044406 0.04587076944010333 0.23291497853719922 -0.2833433773565718 0.06210660732444682
-0.16459479437668995 -0.06152120638768773 -0.14580510153930284 -0.0645027948330216 0.00035395007528123205 0.2013336449394734 -0.0802899857391891 -1.0539963334067313

linear1.bias f8 [500]
00000000: b552 290d ef70 f5bf 0b60 a19f 5a10 09c0
00000010: e7dd d0ca 4c05 f6bf e259 711a 3673 f7bf
00000020: f711 5364 c3a1 fcbf dc65 2ac3 2cfe eebf
00000030: 0e96 a30c 34f9 e3bf 49dd 1bab 364b f9bf
00000040: 7302 0184 4b0c dabf 70da 9313 8528 f1bf
00000050: bc9b 77f9 caec f5bf 432d 315d 04e5 f6bf
00000060: a825 a1f0 391f 00c0 a1f2 f938 ad96 20c0
00000070: 0d04 8ded 8977 f6bf 6a41 037f 7db4 d8bf
00000080: e10c d78c 0b8c e1bf 885f 6162 e769 f3bf
00000090: 9a54 c6ad c0e2 05c0 52a1 6a45 a4ff 00c0
000000a0: 3792 2e6c bba5 02c0 efb8 bb98 c805 fabf
000000b0: b537 fa6a 4817 f5bf f3e8 2fe5 53b4 efbf
000000c0: 4af9 1cc9 2cdf eebf 0b11 dbaf 5fd4 ffbf
000000d0: a0ed 1f2a 0e8d 06c0 f699 3bd2 ccb7 f8bf
000000e0: 8a2a c61b 065c e8bf 30bf 5eb3 984f eebf
000000f0: 1eae 2a3f 90c0 e0bf e7f9 c630 dd69 04c0
00000100: 3b87 866d 0fc7 eabf 085f 29af dd00 05c0
00000110: 6ce7 b029 b996 f9bf fa46 296b 4922 07c0
00000120: fd8e a5e9 d168 02c0 7164 b34f 7824 d9bf
00000130: b2df c8e9 2356 eebf dc73 9d8e 719c fcbf
00000140: ecdb d224 fcc3 01c0 ad6c 798f 7d59 f0bf
00000150: b6cc 4119 5823 00c0 dfe4 8d9c dbf2 ffbf
00000160: f6ca 8716 add5 01c0 9d81 9785 793a f9bf
00000170: d8f0 9d05 8ae7 f5bf 25a2 70df 6cc7 f4bf
00000180: 4377 d93d 7594 dfbf 12f4 4020 a500 f3bf
00000190: 2b1e 846f 7fc9 f9bf 1e02 1c32 487a f5bf
000001a0: 4505 c601 f428 f0bf 404a b349 a2f8 fbbf
000001b0: dfba 5592 cfea f3bf 788e 1bf5 fbb9 02c0
000001c0: 8801 25b8 24dd 00c0 e8b2 8122 7f18 f8bf
000001d0: 0db2 8027 73de d7bf 29a3 8c94 bc83 e1bf
000001e0: e382 399f f9c7 02c0 719b 6454 59b8 00c0
000001f0: faf3 1e89 28c5 f7bf 203f fe94 0ab7 03c0
00000200: 4981 aebf 3325 f3bf d0e3 afaa a9a1 f5bf
00000210: 7a35 396e 4031 e9bf f1c3 f214 e805 02c0
00000220: d5a0 fe38 ca95 02c0 6b7a 45af d3d2 f4bf
00000230: 2b73 5a02 3c4d f5bf 3692 ac2c 1c1c 06c0
00000240: 0088 c6dc 821c 00c0 5c39 7870 17df 09c0
00000250: 9762 4dfe 966a 05c0 f522 8463 836b ecbf
00000260: 6d4e 2e0f 15d8 f8bf 75ad 2274 95d7 ccbf
00000270: 6c6e ec4a 7212 fdbf 90bc 8f1a 9408 f1bf
00000280: d039 4754 f54f f7bf d3fa fc6e 0b72 edbf
00000290: de67 00b6 1a9b 07c0 7317 2a34 23ed f7bf
000002a0: 582b b75b aec6 00c0 5a66 14f4 354d 08c0
000002b0: 8389 d837 88af ffbf 0c64 b953 1d2f e8bf
000002c0: 8963 0737 9166 e2bf c939 7ffb 616a ffbf
000002d0: 89d3 c908 7ad5 07c0 23ef 91e3 f343 f2bf
000002e0: 9cad 023d 56c9 f6bf e379 b3c6 4641 05c0
000002f0: 79e9 a86f 56c5 efbf 40e5 3d53 ca60 e6bf
00000300: 8ea9 e18e eda5 14c0 7d24 144c fef0 ffbf
00000310: b9d2 05bb cbfb dfbf be83 d984 5f77 e2bf
00000320: d0e8 b723 ef13 10c0 b4d4 ee27 07b5 e6bf
00000330: 0566 b5ca 4901 e3bf 5bb1 13c5 8570 e9bf
00000340: de99 f5bb 0791 02c0 6b8c 5cb0 41d0 fbbf
00000350: 9a44 04ee b83d 1ec0 6d82 8f96 1ae9 ffbf
00000360: e7c5 2514 ad90 05c0 b3ce 7002 42f6 e6bf
00000370: 10d1 1d13 f032 f8bf 3dd2 456b a4c7 01c0
00000380: 88bd 34b7 a191 03c0 7dbf 1e89 9ef2 03c0
00000390: 860d 00a3 1277 03c0 f989 a139 92dd fabf
000003a0: 5601 fbfd def2 febf de95 fe16 5afa e3bf
000003b0: ec7a 614b fe74 12c0 dfff 6fbc d889 05c0
000003c0: 11b1 873f f544 fabf c1ec 31d0 791e eebf
000003d0: 1c56 f725 e452 00c0 804b 0ff4 9b08 01c0
000003e0: 7be4 f138 5cb4 f5bf 6077 974d 4e1e 01c0
000003f0: 4801 d8bf 689e efbf db90 847d 2dfb f7bf
00000400: c8c4 1e58 b501 f4bf f4d2 7678 87e7 f6bf
00000410: 0472 27b6 4604 01c0 74a8 3804 7cf1 f3bf
00000420: f901 9f18 712a 02c0 e35d 27b4 2389 03c0
00000430: 8557 a376 510d f1bf db43 c0d3 7d4b f1bf
00000440: 1bf1 4d16 fb66 f7bf 0459 1a55 43db e6bf
00000450: af35 413d 9f12 e2bf 9572 20a1 e2b5 0ac0
00000460: acce e324 e4b3 f7bf fb06 3462 b695 f5bf
00000470: 27f8 e8f9 ae83 f9bf 8d72 7828 1180 e6bf
00000480: 10fe 0188 8eba f5bf 88b9 1c1a 27e8 e2bf
00000490: bdd8 8972 09c1 f0bf be64 9f34 e0af febf
000004a0: 3c29 ca1f 4716 dcbf f5d4 500b 3d72 f4bf
000004b0: 3b49 7322 5005 05c0 caba 1b9e 7b09 00c0
000004c0: 9d7b ded1 e0e5 e8bf ff0a d417 b0f7 02c0
000004d0: 1546 e4ff bf65 04c0 84a8 2281 ab06 e1bf
000004e0: da6e e12c d841 01c0 169b f8b4 25a1 e2bf
000004f0: a3a8 3d7f 4f00 f3bf b2ca 789a bf05 f0bf
00000500: dcd2 1d9c 3dc3 03c0 6db9 c739 e99b 04c0
00000510: 64cf 0ecb cce7 0dc0 0f32 f7a3 0b0b efbf
00000520: e88e b66d c221 16c0 80be ad4f 5ebf ebbf
00000530: 7b7a c0bf 624d eabf fc4d 04b2 f59a febf
00000540: 2f20 2b23 a948 fdbf cea5 4ac6 a302 ecbf
00000550: 2f92 138f bfc4 02c0 547a af93 469f e7bf
00000560: db80 629f 0f86 ebbf 3e6a 7f3c d800 f3bf
00000570: deb0 58be 9917 eabf ef5a 6050 bbf8 e1bf
00000580: bde8 0f6a 0c5e f9bf 01fe ab92 ef39 08c0
00000590: 8c86 53cf 86c0 07c0 5ef6 54a5 adbb f9bf
000005a0: 9d0a 8dc7 ddf5 f8bf 4cbc eb9d 6365 03c0
000005b0: 733e 91d3 ac9a 03c0 44d2 7ff2 89c1 e6bf
000005c0: 906a b53f aca5 e2bf 731d 77ea 3e8c e4bf
000005d0: 3799 79d6 757b fabf da42 3f1e b7c6 fabf
000005e0: b68d a0e3 c757 febf 4815 8857 9ab4 07c0
000005f0: 7976 d9ac 7f98 efbf e2ba c87b d8f5 efbf
00000600: d66e 7451 00b3 e6bf db51 1ec9 4d41 f7bf
00000610: abdf 62fa db1e efbf 11ef 663b e776 f3bf
00000620: b06f 0138 33f9 efbf 0eac 9426 386f 01c0
00000630: f510 9db8 0a5e 05c0 a25b 4526 e1ba efbf
00000640: 085b f59f ceeb f9bf f1ab 1e0b 5016 20c0
00000650: 903c 274b ed36 06c0 9e2c 4944 16f5 d5bf
00000660: 4c88 7580 5d84 ecbf f01c be96 ebbc 12c0
00000670: 6682 6e5f 69e4 04c0 069d d3b0 4599 06c0
00000680: 7b0f 648a 194f f9bf 4a40 bd63 7fbe e7bf
00000690: 07c1 64c5 185a 02c0 e1e4 9472 943f 01c0
000006a0: c68b 6a04 f923 1ac0 0aa6 e492 7348 f4bf
000006b0: a07a 6318 d126 f1bf b901 bff1 6bbf f8bf
000006c0: 5a30 6c7c d327 febf e835 e91d 2695 ffbf
000006d0: d0d3 5f08 85f4 02c0 a2ce f102 30c1 02c0
000006e0: 11c2 4467 5efb f4bf 94be 817f ff21 d8bf
000006f0: 0776 5d50 ea5d f8bf e575 4e64 a46f fbbf
00000700: e108 83f5 7f88 febf 6d0f b91d 7bda 03c0
00000710: 43db 4425 104b fcbf 1c83 e365 4e95 ffbf
00000720: adaa f3ef 5f75 05c0 5525 e435 ddb6 03c0
00000730: cd0d d2ab af80 05c0 aef5 c12f 7d5e fbbf
00000740: af7f 4249 fef3 00c0 9217 d806 e9cd e4bf
00000750: 786c 7403 5448 efbf fc36 4638 928a fabf
00000760: 9226 1c66 1fdf fabf 2963 974a 3a79 f8bf
00000770: 0916 9425 0b21 16c0 12ba 71d4 9fe2 0dc0
00000780: 98df fe1a 6456 e4bf 9519 39b8 6513 01c0
00000790: 2298 8640 3709 03c0 0a36 b2e1 9b37 fbbf
000007a0: f152 4341 852f e1bf b865 e68c d222 06c0
000007b0: cdb2 178e 7ac3 06c0 ce4c d428 638a 05c0
000007c0: d970 161b cb87 debf efa0 8a80 5946 02c0
000007d0: 834f b3ac 09dc e2bf b84d ebef 41fe e3bf
000007e0: 2231 6bca 6c98 1bc0 0b84 3bad 0e28 f6bf
000007f0: b323 214e e759 d8bf aa4f efb8 b537 debf
-1.3400717271917248 -3.1329853507159036 -1.3762939379210992 -1.4656277687951094 -1.7894929808545592 -0.9685272037342503 -0.6241703268867143 -1.5808626827182073
-0.40700042620668525 -1.072392536616146 -1.3703107590497288 -1.43091236498988 -2.0152472304514113 -8.29429033328171 -1.4041842727021987 -0.3860162487371982
-0.548345351293758 -1.2133554308875052 -2.73571906816012 -2.1248250411191885 -2.3309238864624393 -1.626412006964127 -1.3181842974476983 -0.9907626606284609
-0.964743035124948 -1.989349066673699 -2.818874672984478 -1.5448730671138242 -0.7612333815062169 -0.9472163680384025 -0.5235062822079646 -2.5516914187166893
-0.8367993487520161 -2.625422829103517 -1.5992976788097293 -2.8917415973636453 -2.301181626667925 -0.39285095008160115 -0.9480151716334062 -1.7881942339802128
-2.220695769963177 -1.0218482593980227 -2.0172578786092243 -1.9967914691354094 -2.229334045428341 -1.5767760485106017 -1.3690281123554566 -1.2986878135799398
-0.49343615570056815 -1.187657476416693 -1.6116937976929744 -1.3423540074728701 -1.0099983281400722 -1.748201644794463 -1.2448268619734149 -2.3408126019510824
-2.107980192784627 -1.5059806201854204 -0.37295225961386863 -0.5473311330179956 -2.3476440848756837 -2.090014132805145 -1.485634360912853 -2.464375652321806
-1.196582554584966 -1.3519684474433582 -0.7872621681978409 -2.2528840672098274 -2.323139615316999 -1.3014714094676048 -1.3313560573507839 -2.763725613609746
-2.013921475228017 -3.233931425732562 -2.677045809494597 -0.8881241744685143 -1.552754458713845 -0.22532909556080552 -1.8170035292340811 -1.0645943677480183
-1.4570210735433768 -0.9201714675653768 -2.95073454083193 -1.4953949010536831 -2.0970122494958723 -3.0377005642629173 -1.980354517124028 -0.7557512889135309
-0.5750204157621833 -1.9634723495579343 -2.9792366682617666 -1.1415900124984055 -1.4241545088978915 -2.6568732760926976 -0.9928390675407136 -0.6993152261558535
-5.162039024852119 -1.9963362666915423 -0.4997433973688135 -0.5770719141693161 -4.0194669323920635 -0.7095981388034915 -0.5939072569992169 -0.7949856614264194
-2.3208155330969324 -1.738343895828417 -7.560275763521668 -1.994410122039109 -2.695642621424429 -0.7175607726735137 -1.5124359843003425 -2.2224815731699707
-2.4461092293710784 -2.4934664452084108 -2.4331410154715654 -1.6790945292674435 -1.9342946930992944 -0.6243105362997843 -4.614251306366651 -2.692307922523454
-1.641835449375382 -0.9412201944645845 -2.040474220858199 -2.1292037074248924 -1.3565332626733653 -2.139797788796315 -0.9880870577763199 -1.4988226798096125
-1.250417083949559 -1.431525679171668 -2.127087996557977 -1.2464561619658783 -2.2707235263371754 -2.441962630702379 -1.0657515177058212 -1.0809305449986286
-1.4626417990940073 -0.7142655050436422 -0.5647731968289714 -3.3388111675288408 -1.481418747044624 -1.3490508876861316 -1.5946492921934892 -0.7031331816138661
-1.358046084671404 -0.5908389577869437 -1.0471281503828742 -1.9179384284564516 -0.4388597307630737 -1.2778902475377525 -2.627594250815631 -2.004630313130609
-0.7780613039975496 -2.370941339643991 -2.54968261638056 -0.532064201562449 -2.157150602941198 -0.5821713003723257 -1.1875758142801167 -1.0014034303718913
-2.4703323551751577 -2.576128436477282 -3.738183580769986 -0.9700983240559838 -5.532968248622389 -0.8671104007934929 -0.8219465012696924 -1.9128319696218332
-1.8302394269721949 -0.87532223442866 -2.3460684945914845 -0.7381928333741805 -0.8601148713096579 -1.187706219023894 -0.8153809278205946 -0.5616127557612723
-1.5854610579540769 -3.0282889803636412 -2.9690071294178946 -1.6083198984410028 -1.5600259585341185 -2.424506410366609 -2.4505249527645048 -0.7111253486933227
-0.5827237362203324 -0.6421198443794495 -1.6551416757516344 -1.673514478829182 -1.8964308635412244 -2.9631850088505054 -0.9873655677763075 -0.9987604539545283
-0.7093507376589183 -1.4534433227719237 -0.9725170030933347 -1.2165291138071022 -0.999169930826147 -2.1793063177224274 -2.670918886464387 -0.9915624377707568
-1.620070099675731 -8.043579432958696 -2.776819789061456 -0.3430839220861318 -0.8911578663794528 -4.684492450097636 -2.611529107627848 -2.824839955766609
-1.5818114667790428 -0.7420041034729448 -2.293992559563893 -2.1560448600472317 -6.535129612925578 -1.2676883447660452 -1.071976752536706 -1.5467338031013311
-1.884723173166114 -1.9739133041761026 -2.369394364761753 -2.3443298559230508 -1.3113693269662046 -0.3770750756438954 -1.5229285372983001 -1.7147563856336714
-1.9083251562411123 -2.4816801378346356 -1.7683259445017974 -1.9739517192867373 -2.6823118921505142 -2.4642891130685407 -2.6878350661733976 -1.7105686059506797
-2.1191373561304867 -0.650135529868509 -0.9775791232563185 -1.6588308523382116 -1.6794733036680651 -1.5295966066098095 -5.53226908413263 -3.7356564137655903
-0.6355457808740423 -2.1344713585305706 -2.3794999161791717 -1.7010763946776728 -0.5370508455913222 -2.7670031554996193 -2.8454485989553633 -2.692571944216616
-0.4770381702926563 -2.2843503992372614 -0.5893600819640458 -0.6247873006745328 -6.89885250357864 -1.38477962178172 -0.3804872763617439 -0.47215025959053014

linear2.weight f8 [10, 500]
00000000: 11e1 6720 e78a 9abf b3ab 5669 debe e1bf
00000010: 4ed5 cee0 953f b03f 3cad e123 79fa c7bf
00000020: a55a 499a 122a b83f d055 a100 f8ba a33f
00000030: 3b25 eeff 0a18 c0bf c1fa 77cc cfcf 9ebf
00000040: 2f65 64a3 83ad c9bf 7c18 07c4 c849 e1bf
00000050: f7e4 6131 2bbf b33f cb71 56dd 21a3 943f
00000060: 598d cac6 a7fb e4bf cd25 20a2 95d3 10c0
00000070: 9d84 742b b0b2 cd3f a9a4 516d 025e 8a3f
00000080: 8ba0 d8d5 a570 b5bf 5bb4 2362 973e 98bf
00000090: 28a1 3202 9c40 f5bf 0197 06cc 1599 11c0
000000a0: 4924 e82f ccc9 dbbf 0b3a d6b9 759d b03f
000000b0: 1643 9d54 ccd5 c0bf 7053 3a77 e351 d9bf
000000c0: a9eb 16ab f66b be3f 773a 37e7 aed4 ab3f
000000d0: 28d3 4ea2 2842 ebbf f780 31a9 fca0 e1bf
000000e0: 43c8 bd80 d779 c1bf bb80 ecf4 5fdc cebf
000000f0: 178f 82a0 a53a 96bf 7a4b efc5 349b e7bf
00000100: 0846 7063 d9d6 963f a6e1 443b cb40 f9bf
00000110: 40a8 30f7 70a4 abbf d7ae 0818 fb95 e5bf
00000120: b3ce 091f 1589 d1bf 9d06 949e 8254 7f3f
00000130: 1065 63d7 7c47 b6bf db36 3e58 5f4f e1bf
00000140: 0099 58b0 5fbb f7bf 662c 7fe1 9037 d93f
00000150: 526e 4904 96bb d3bf 042a 7c72 61f6 e3bf
00000160: f1c6 3a3f ffcb c4bf 96b5 103b fda9 d5bf
00000170: eda0 20f7 fef1 8bbf 8534 8d59 a80e e4bf
00000180: 6d94 665b 00b5 d2bf cab5 0efc 253b bfbf
00000190: f087 3517 4e82 d2bf 6dfb 6a82 b6ea d13f
000001a0: ee83 f55c dddb 763f bd81 d81d 2124 7a3f
000001b0: f9ae 68aa 2305 cb3f f5f2 5808 9272 e3bf
000001c0: d8a8 fcfa 81cb d9bf 8a27 c246 1692 a5bf
000001d0: 53ab 6e9f c8f5 c0bf 3346 5a74 0dc5 c2bf
000001e0: 39a6 14a5 fb69 b43f 6448 5501 f90c cbbf
000001f0: e3f6 5191 4f97 abbf 8eca d5db 54d3 f0bf
00000200: c255 2d91 cef5 b03f daf8 acff 2dec a9bf
00000210: d4c4 60ba ff5f ad3f 0999 607e 51e0 d9bf
00000220: c9af 69e2 3459 a2bf eefe 279f 821a bfbf
00000230: 5f35 b0f3 2307 a73f 1cf0 7043 a8b7 d9bf
00000240: b0fe e932 e37d c03f f493 5a00 5d12 a9bf
00000250: 7044 ea74 4aeb f0bf 0e33 0c72 4c1c bfbf
00000260: d42e a27e 6ad5 77bf 311a 7769 70a4 abbf
00000270: 3c1c 9c3e 245a c0bf 717a a14e 866b bb3f
00000280: 7bcf 37c5 01f4 d5bf 4fb7 94fe a9a3 d4bf
00000290: 7fbc fe6d 5208 c2bf 2f06 048a 46a1 a7bf
000002a0: 1a98 9734 dde0 a4bf d4e1 a646 e91c d0bf
000002b0: f1ad e222 cce0 d1bf 8388 2bba 0f5c c4bf
000002c0: 49b1 9060 e238 a7bf 6ce0 9083 7750 e2bf
000002d0: a8c2 8562 7d06 d7bf 315b 2c19 800f afbf
000002e0: 1042 c449 3ea9 b83f ef00 3152 d95e e9bf
000002f0: f70e e8ca 664a 803f 60d9 a48f 423b 9f3f
00000300: 1029 7094 8e9b ffbf 0f18 dfe1 7422 a23f
00000310: 0f16 bfbe cd4f 95bf b36c 7e33 8e44 be3f
00000320: 3f60 6742 fa52 c2bf 3d12 948b 000b c0bf
00000330: 90e5 93eb 935c 12c0 455d 9c93 f984 cabf
00000340: 09a7 6fec d2cd a7bf 5d9e 2785 c580 c9bf
00000350: 11a7 fe8c 67bf 0dc0 b439 730e 0562 a5bf
00000360: f01f 7f2a 010d d5bf 1d73 6ba5 fc0d 793f
00000370: 3a9c 5a2a 68d9 02c0 1999 b144 3a0e d2bf
00000380: 5220 7c22 f8ea 00c0 7187 1117 2a5d 01c0
00000390: 2d20 02ef 454b f0bf 6fe0 fd2b 3603 d4bf
000003a0: 2b84 3675 c474 c3bf 3fd6 ec71 635a c0bf
000003b0: 58c2 8840 cb59 02c0 28b9 78d9 f023 d63f
000003c0: 8f7f 734d 6498 e0bf 1968 7056 42ae cdbf
000003d0: 7b4b 7295 57ee c1bf f79f 8332 dd3d cfbf
000003e0: 892e 0bec ec22 d53f 955f e0c3 a412 d2bf
000003f0: de8e 51f4 44bd b9bf edc9 6ad6 36a2 b7bf
00000400: 2554 ba62 4100 dcbf 7b68 6d60 d36a d1bf
00000410: ccf9 0ad9 b013 cb3f aebc b797 a552 d7bf
00000420: 2db6 1f8f 2530 c0bf 6955 43c4 80a8 e2bf
00000430: 6d04 8421 568f dbbf 1ff5 c7a5 071d c83f
00000440: 4615 92fe d1fd e1bf 859d 2a93 d499 cb3f
00000450: 8c47 0e65 1843 86bf f61b ec16 7627 f2bf
00000460: e271 3267 803c c9bf b155 5d9c e06f bb3f
00000470: 2c2e 3eda bdf8 cd3f 94f8 f957 3331 a6bf
00000480: a6df 99f7 7d08 7abf 8d5a 99f4 fc2c b43f
00000490: eae8 726d 0087 9ebf cc81 8054 0eec d2bf
000004a0: 1363 0be9 e3df b2bf 8e1a bd97 c85f e5bf
000004b0: 37b0 8558 9b3b dbbf 1653 5aad 2732 e0bf
000004c0: 21f4 4446 b52a c5bf 1c3c 5cc3 db45 d43f
000004d0: 1b63 004e f01e 663f 9cb8 db65 6996 993f
000004e0: 957a 11c3 4a55 d4bf 14c8 f76b 7dc9 ccbf
000004f0: e9e2 55bd f224 c13f 4131 7df6 3a07 c9bf
00000500: 316d b71c 8ff3 f2bf 534c a73f 9a25 a13f
00000510: 46ff ce5c 1cc5 edbf 1356 236b e8c0 c6bf
00000520: 0065 c359 b6bd 0ac0 42fd 1704 eead b3bf
00000530: 401b a5fb 30b2 d2bf b8fb 389d 32d4 e4bf
00000540: 63fc 330b c59a c9bf 3a03 4e2c 5db6 91bf
00000550: ff27 5296 3a8c dc3f a143 ae78 79ea 54bf
00000560: 6eb4 ebc5 4083 b73f 67ec c8d2 04c3 d2bf
00000570: 095d bdab dafc c7bf 15bf 0751 6d66 7bbf
00000580: 57e5 96c1 2166 c3bf ef11 8f88 fba2 c4bf
00000590: c66b d9c9 3951 d1bf 52a1 9b63 5843 d8bf
000005a0: 381b d5e6 a32e 99bf 4b8f 72e7 9c54 d63f
000005b0: 83d3 5e94 e04c ba3f f427 c5aa a671 cf3f
000005c0: 02eb d78b 0ca1 90bf e93e 8867 3443 b63f
000005d0: 9cdd a9b9 79ed d0bf f7f9 65aa a53c e8bf
000005e0: 67d4 6069 fe78 cdbf d060 eff0 e7f5 c33f
000005f0: ea82 7cfa 9136 80bf b27a baa5 b4f6 bc3f
00000600: b378 1b96 d2be d0bf 2393 302e 995b d5bf
00000610: 5d7a 698d 10ab aabf 7de4 cf70 884f 78bf
00000620: 2575 d074 e7a3 b93f 1200 7873 2391 e3bf
00000630: 20ab 29f7 f46d d83f 882e 22cb 7cf1 b23f
00000640: dd5b 5c1f 94db a23f 2009 747c d4f8 11c0
00000650: ffaf a321 77a9 debf 514b 77ba 83cc a23f
00000660: 72f1 7b39 2754 cd3f 9938 0c42 bd4f 12c0
00000670: 7068 0efd abaf bdbf 49b2 42af 367d c2bf
00000680: 31cf cd1d 31ca d9bf 2b2f b47f afbe b13f
00000690: 8f4a 30b6 eadf a2bf 551b f233 7837 bbbf
000006a0: b2cd e383 9a6d 08c0 084d 3a73 9b3e c0bf
000006b0: 526a 7795 6152 a7bf 77d1 9302 485e d8bf
000006c0: a943 ca69 b8c5 d7bf 69c5 d733 1acb d8bf
000006d0: b7ab 6344 7ddf edbf 153e 6078 8f3f e6bf
000006e0: e158 7d2b 3253 c63f 019a 6d6a feff bbbf
000006f0: 93ec d596 214c d5bf c82a c0d4 4e82 c0bf
00000700: 7b49 0c1b a723 cebf d1e4 8f30 1647 f2bf
00000710: 794f 5c04 190a d63f 82a3 00b4 59af cdbf
00000720: 44f2 5e75 4a40 893f e9f3 7805 1f22 dfbf
00000730: 463e 61dc cb98 e4bf e071 1418 f911 bebf
00000740: 72d0 ffe9 cd10 b43f 941c 8489 d50f c3bf
00000750: 97d0 d4e0 d504 d63f 7a62 517c 69cf c13f
00000760: 80b2 447a 889e b7bf 5bd7 b86e 96b3 c83f
00000770: 475a 0410 48a4 12c0 7e0d 7a3d 8b3e fbbf
00000780: 700a d08f 65fd a8bf e9bf 075b 0f76 cf3f
00000790: 7c1d 4064 27c5 e4bf 59e5 3485 c0db e6bf
000007a0: f4dd 2cdf 7869 c4bf cf7c 7ed3 5078 f4bf
000007b0: 589a 95c5 9b40 ddbf dbb9 9fd0 f023 f4bf
000007c0: 0d81 fbbb b0ea bf3f f413 420b fe0f d5bf
000007d0: 3bc5 434d 456a aebf a088 703d c7d0 a93f
000007e0: b9fa 5021 d45c 20c0 0624 7a7b 8ace 94bf
000007f0: f3e2 af72 14dc 763f e333 069f 9f94 b3bf
-0.025920497277156566 -0.5545494134324741 0.06347023714518693 -0.18733133556393422 0.09439197794686523 0.038535833432131406 -0.1257337331447078 -0.03008961377599451
-0.20060773351796388 -0.5402568653742175 0.07713575320839881 0.02015355027616454 -0.6557196505204202 -4.206625493251932 0.23201562997659134 0.012874621354244846
-0.08375011893133626 -0.023676267018278057 -1.3282737813806964 -4.399497211363042 -0.43419174841307445 0.06490264689475837 -0.1315246022372995 -0.3956230797132809
0.11883489300718843 0.05435701916177476 -0.8518260164333684 -0.5509017281110847 -0.13653081690023514 -0.2411003061215576 -0.021708095475914648 -0.73769606265192
0.022303959554909297 -1.578318816680715 -0.05398896233994366 -0.6745582074558695 -0.2739918521030901 0.0076489546129338256 -0.08702831514837706 -0.5409390185829709
-1.4832455528754167 0.39401647587937416 -0.30832434099804573 -0.6238257633243056 -0.1624754961717865 -0.33850031631558275 -0.013645164410334998 -0.6267892598203991
-0.2922974484047874 -0.12199628261324516 -0.2892031885768338 0.2799507402050299 0.005580773067181062 0.006382111894283002 0.21109433956859627 -0.6077356493984484
-0.40304612646526783 -0.04213018049001878 -0.132500722739986 -0.14663856679230633 0.07974217205323776 -0.2113333946713879 -0.05388878487518214 -1.0515945994672253
0.0662507156788115 -0.050630032978448106 0.057373038769932855 -0.40431630460297235 -0.03583684219196887 -0.12149826417589413 0.04497635221205586 -0.40183455072451735
0.1288417814830516 -0.048968225758734635 -1.057444054317127 -0.12152555260054163 -0.005818763727926519 -0.053988945841002674 -0.1277509027206366 0.10710944575974125
-0.3430180002171636 -0.32248926030557795 -0.14087896700718613 -0.046152309749242774 -0.04077807681078145 -0.2517646017036246 -0.2793455448797593 -0.15905949201902922
-0.045355867660279055 -0.5723226136824571 -0.3597711050161174 -0.06066513354578829 0.09633244801467122 -0.7928282361317808 0.007954409663404756 0.03049949647648853
-1.9754777716030425 0.03541913277835828 -0.02081223942493265 0.11823357350515344 -0.14315727465032244 -0.12533575835563396 -4.59040802087965 -0.20718307216223245
-0.04649218689139729 -0.19924229623505854 -3.7184592261518294 -0.04176345635788739 -0.3289187350278544 0.0061168545714423124 -2.356155711069303 -0.28211838444112086
-2.114731091893227 -2.170490436766095 -1.0183772407781462 -0.3126960210424902 -0.1520009586647871 -0.1277584368014448 -2.2938447038398344 0.34594365346392175
-0.5186025154798574 -0.23188046665819753 -0.14008612439337384 -0.24407544104110432 0.33025668192997465 -0.28238791588364026 -0.10054427113351092 -0.09231894240182444
-0.43751558915511374 -0.27214512268768204 0.2115384158878001 -0.36441936317619195 -0.12646932114096057 -0.5830692132246159 -0.4306235625554738 0.18838592142848484
-0.5622339222033268 0.2156320303522358 -0.010870161613443029 -1.134634103336564 -0.19715886153143375 0.10717586343283504 0.23415349155799114 -0.043344120492279675
-0.006355754908888322 0.07881146403938484 -0.029811865501621883 -0.2956577134337095 -0.07372879447519791 -0.6679423297544689 -0.42551311154125265 -0.5061224351689784
-0.16536584788437472 0.31676382139352355 0.002700299592117606 0.024987837640701657 -0.3177058129275932 -0.2248989846407886 0.13394006962678098 -0.19553315196606927
-1.1844626542795818 0.03349000956554762 -0.930311375872386 -0.17776208144520975 -3.3426329624895743 -0.07687270736640975 -0.29212593626691685 -0.6509030409578065
-0.20003569647812744 -0.01729722578920987 0.4460588901498567 -0.0012766062015751938 0.0918465121464622 -0.2931530054517623 -0.18740399728515225 -0.006689478891061436
-0.1515543170224116 -0.16122383277810523 -0.27058262550206924 -0.37911042907082504 -0.024591980899710125 0.3489143619756205 0.10273555395435889 0.24565585459123407
-0.016239353213658887 0.0869629624141869 -0.26449435359196527 -0.757403214272755 -0.23025493760511326 0.15594195618064655 -0.007916584450471349 0.11313942953209269
-0.2616468873874382 -0.3337157202789049 -0.05208636976452816 -0.0059352235521085124 0.10015722848807636 -0.6114670996903462 0.3817112363528157 0.07399730643572344
0.036831501796932044 -4.492998070318464 -0.47909334454629965 0.03671657229610637 0.22913065249293713 -4.577870399471203 -0.1159617893994509 -0.14444621617930611
-0.40296581182996066 0.06931588046807906 -0.03686459993345636 -0.1063151480503682 -3.0535173705954657 -0.12691062094072714 -0.045550393577020856 -0.3807544732256
-0.37144289332450825 -0.38739638388422876 -0.9335314117173458 -0.6952588416187974 0.1744139397002931 -0.10937490557044073 -0.33277168016474795 -0.12897668255057781
-0.23546303578093472 -1.1423551461178258 0.34436631608809126 -0.23191376961883853 0.012329656321406486 -0.48645759138508865 -0.6436518959325859 -0.11746174657714148
0.07838141405938062 -0.14892071928645534 0.3440451331728211 0.13914221353731532 -0.09226277337138278 0.19298057943677346 -4.660431146875061 -1.7027695084987893
-0.04880826359296442 0.24579040474736694 -0.6490666349426841 -0.7143251992885481 -0.15946875474195077 -1.2793739568222013 -0.45706838889456014 -1.2587745808956388
0.12467484082617748 -0.32910109614778027 -0.059404531175355456 0.05042097687716418 -8.181305924544505 -0.020319141184277377 0.005580978274331671 -0.07648656494548293

linear2.bias f8 [10]
00000000: 91f1 799f 1bcf 12c0 6297 cf11 f86d c7bf
00000010: 3694 788f 1a9a d3bf 4bab 3047 873d c1bf
00000020: 2dee 8260 db7d e83f 061a 55e8 abd3 dc3f
00000030: 45b3 121f ffb7 fcbf ee26 8ab7 e2ab da3f
00000040: 7117 0957 2d45 debf 7201 4366 59fd f4bf
-4.7022538107088545 -0.18304348821328192 -0.30628074656334847 -0.13469019867019436 0.7653633961667247 0.4504194039222117 -1.7949210370818076 0.4167410652522524
-0.4729722356754485 -1.311852836093831
